backend-python/model_state_small_dict.pth (torch, 140082 bytes, 2 tensors)

user_factors.weight f4 [1815, 8]
000000 b2 be 2c 3f c9 11 24 3f a2 2b 2d 3f 6e 4e 30 3f
       0.6747848 0.6408964 0.67644703 0.68869674
000010 b1 3e 26 3f ef a6 2f 3f f7 de 27 3f 94 f7 2b 3f
       0.6493941 0.68614095 0.6557459 0.6717465
000020 b0 2a 7d 3f a0 7f 81 3f 17 c5 74 3f 49 20 75 3f
       0.9889326 1.0117073 0.95613235 0.9575239
000030 78 16 73 3f 1e ce 66 3f 7b cc 67 3f 8b 51 6b 3f
       0.9495616 0.9015826 0.9054639 0.919213
000040 e8 ac 33 3f af 5d 42 3f a6 06 37 3f f4 2d 39 3f
       0.7018571 0.759242 0.7149452 0.72335744
000050 7c e3 39 3f cf b4 3a 3f 30 91 40 3f 9b cb 30 3f
       0.7261274 0.7293214 0.7522154 0.6906068
000060 32 b0 5b 3f 8d 88 4d 3f 92 e0 57 3f 15 5e 56 3f
       0.8581573 0.80286485 0.8432704 0.8373731
000070 e6 e8 4d 3f 8b 2f 57 3f 0b c2 54 3f 59 ab 4e 3f
       0.804335 0.8405692 0.83108586 0.80730206
000080 d2 c1 3c 3f 4b aa 40 3f bf e9 40 3f c7 ab 49 3f
       0.73733246 0.75259846 0.7535667 0.78777736
000090 28 0e 41 3f 36 83 3c 3f 2e c9 42 3f 62 5a 3c 3f
       0.75412226 0.7363771 0.76088226 0.73575413
0000a0 fb ff a4 38 ce cd b9 3c 5d cd 09 3d b7 72 84 3c
       7.8678095e-05 0.022681143 0.033643115 0.016167982
0000b0 5d 5c 5b 3c 21 ce 6b bc 9d 03 88 bb f2 79 8e 3c
       0.01338872 -0.014392407 -0.0041508214 0.017392132
0000c0 02 9c 59 3f 66 ae 5a 3f 5e d0 57 3f b8 20 59 3f
       0.85003674 0.8542236 0.8430232 0.8481555
0000d0 bd a9 5b 3f 8a 70 5a 3f 40 c9 54 3f 06 b4 4f 3f
       0.85805875 0.8532797 0.83119583 0.8113407
0000e0 b7 03 b8 3e 87 62 a1 3e 53 82 b4 3e a2 fc a8 3e
       0.35940334 0.31520483 0.3525568 0.33005244
0000f0 3b 98 ab 3e 78 2a a4 3e d5 ee ad 3e 8e 7b b6 3e
       0.3351458 0.3206365 0.33971277 0.3564114
000100 db 10 46 3f ae 3a 39 3f 41 49 3f 3f 34 7d 4c 3f
       0.7736947 0.72355163 0.7472115 0.79878545
000110 4d 87 46 3f b6 9b 45 3f 11 30 36 3f 20 70 43 3f
       0.775502 0.7719072 0.71167094 0.76342964
000120 8e 30 3a 3f a1 a7 3c 3f 66 89 26 3f f5 d4 33 3f
       0.7273034 0.7369328 0.65053403 0.7024682
000130 1e 15 3e 3f 35 b1 2d 3f 40 1f 39 3f 11 8f 2e 3f
       0.7425097 0.6784852 0.7231331 0.6818705
000140 b6 21 80 3f fb 43 80 3f 35 7e 80 3f be 0f 7a 3f
       1.0010288 1.0020746 1.0038515 0.9768027
000150 f5 32 80 3f e4 7e 81 3f 28 6f 80 3f 89 df 7e 3f
       1.0015551 1.0116849 1.0033922 0.9955984
000160 76 0b 3b 3f b7 a6 38 3f cc ff 36 3f 52 3b 41 3f
       0.73064363 0.72129387 0.71484065 0.7548114
000170 5f 06 3a 3f f2 85 42 3f 6b d2 45 3f 09 1d 47 3f
       0.7266597 0.75985634 0.772742 0.7777868
000180 04 ce 2b 3f e1 64 31 3f 62 34 31 3f ff bb 37 3f
       0.6711123 0.69294554 0.69220555 0.71771234
000190 af 00 35 3f 2e 32 29 3f 49 0f 2f 3f 83 ac 32 3f
       0.7070417 0.66092193 0.683827 0.6979448
0001a0 77 02 83 3f 17 c4 87 3f 17 5d 87 3f 71 2b 87 3f
       1.0235127 1.0606717 1.0575284 1.0560132
0001b0 5d fd 86 3f c8 48 85 3f ac 38 8a 3f b2 47 88 3f
       1.054607 1.0412836 1.0798545 1.064688
0001c0 b1 b4 45 3f 82 d0 40 3f 90 cb 47 3f f3 75 50 3f
       0.7722884 0.7531816 0.78044987 0.81429976
0001d0 f9 0d 4a 3f 4f f9 40 3f 13 f0 44 3f 86 45 43 3f
       0.7892757 0.75380415 0.76928824 0.7627796
0001e0 ed 42 34 3f 19 7d 2f 3f 63 a3 33 3f a1 cc 2f 3f
       0.7041462 0.6855026 0.70171183 0.68671614
0001f0 d7 07 35 3f 5e aa 28 3f 5d 62 39 3f d5 eb 2b 3f
       0.7071509 0.6588496 0.72415715 0.67156726
000200 32 02 36 3f a9 f9 2d 3f 55 f7 2e 3f cf bb 2b 3f
       0.710971 0.67959076 0.6834615 0.6708345
000210 48 7d 2d 3f bd 20 2f 3f ff a3 2e 3f c8 ad 29 3f
       0.6776929 0.6840933 0.6821899 0.66280794
000220 bf c5 3b 3f 1e fb 3c 3f 8e 11 3c 3f 4e 1f 4f 3f
       0.7334861 0.73820674 0.73464286 0.8090714
000230 b9 cc 3e 3f c9 bf 42 3f fc ca 47 3f 5a d0 42 3f
       0.7453113 0.7607389 0.78044105 0.7609917
000240 bd 77 32 3f 49 c8 34 3f aa df 33 3f 26 49 33 3f
       0.69713956 0.7061811 0.7026316 0.7003349
000250 4a 3c 35 3f eb c9 36 3f 20 66 39 3f 26 64 31 3f
       0.7079512 0.7140185 0.72421455 0.6929344
000260 fa 0f 9e 3f 3a 53 92 3f 63 3c 96 3f 04 a5 99 3f
       1.2348626 1.1431649 1.1737179 1.2003484
000270 a5 3d 98 3f 59 33 94 3f fd b7 96 3f cf 6b 94 3f
       1.1893812 1.157817 1.1774899 1.15954
000280 82 ae 35 3f d3 16 29 3f d5 9f 2f 3f 7e a5 34 3f
       0.709694 0.6605045 0.6860326 0.7056502
000290 9c ed 37 3f 87 05 2c 3f d6 c5 33 3f 58 62 2a 3f
       0.7184694 0.67195934 0.7022375 0.6655631
0002a0 8f 59 3b 3f db e7 2a 3f 77 9f 30 3f a7 aa 3a 3f
       0.7318353 0.66760033 0.68993324 0.72916645
0002b0 3a cc 35 3f 11 09 2e 3f b1 d7 33 3f 04 d0 2b 3f
       0.7101475 0.67982584 0.70250994 0.6711428
0002c0 70 58 41 3f ab 4b 36 3f f6 b4 3a 3f fc ec 40 3f
       0.7552557 0.7120921 0.72932374 0.7536161
0002d0 93 83 3a 3f 47 8f 3b 3f 49 e1 3e 3f 1b df 41 3f
       0.72857016 0.732655 0.7456251 0.75731057
0002e0 9e b9 e9 3e c6 f7 f4 3e 7a 33 cc 3e 32 b8 e0 3e
       0.45649427 0.47845286 0.39883024 0.4389053
0002f0 e3 73 d5 3e 96 7b e4 3e d9 2c dd 3e ce b7 cb 3e
       0.41689977 0.4462554 0.4319828 0.3978867
000300 24 dd 09 3f 2a 20 0c 3f 5e 5d 18 3f 85 66 19 3f
       0.5385306 0.5473658 0.5951747 0.5992206
000310 14 1c 13 3f 16 3f 1a 3f e5 35 16 3f 89 af 1d 3f
       0.5746472 0.6025251 0.58675987 0.6159597
000320 63 ff 41 3f ef 75 41 3f 0a 40 39 3f 71 bd 40 3f
       0.75780314 0.7557058 0.7236334 0.75289065
000330 d1 22 40 3f 17 fa 40 3f dd fd 4a 3f 56 45 48 3f
       0.75053126 0.75381607 0.79293615 0.782308
000340 42 d3 44 3f 83 4e 42 3f db 84 40 3f 99 de 38 3f
       0.76884854 0.7590105 0.7520272 0.7221466
000350 8e f6 40 3f a4 91 40 3f 82 c8 38 3f f8 d9 48 3f
       0.7537621 0.7522223 0.7218095 0.78457594
000360 9f 0d 41 3f 0d 6f 3c 3f 1c ea 42 3f b8 23 49 3f
       0.7541141 0.7360695 0.7613847 0.7857013
000370 2f 64 48 3f df f0 45 3f da 03 47 3f 2f 7a 40 3f
       0.7827787 0.77320665 0.7774025 0.7518644
000380 9e 4d 4b 3f 97 85 53 3f bc 79 50 3f 9e 71 46 3f
       0.7941531 0.82625717 0.8143575 0.77517116
000390 ad be 4f 3f 4f 45 54 3f 4e 18 51 3f 3f 44 5b 3f
       0.81150323 0.82918257 0.8167771 0.8565101
0003a0 75 43 8b 3c 3f 95 29 bc 8c 5e 86 3c b5 f7 f0 bc
       0.01699994 -0.010350524 0.016402505 -0.02941499
0003b0 14 57 29 bc b0 70 68 3c fa 76 44 bb f6 6d 8e bb
       -0.010335702 0.014187023 -0.0029978142 -0.0043466045
0003c0 53 8a 4b 3f bc 11 53 3f 30 49 48 3f 73 58 48 3f
       0.7950794 0.82448936 0.78236675 0.7825996
0003d0 91 84 41 3f 9e 0a 4b 3f 9e c6 3e 3f 97 69 4b 3f
       0.75592905 0.79313076 0.74521816 0.7945799
0003e0 17 14 1f 3f 46 05 1a 3f 55 c8 1e 3f fa 13 25 3f
       0.6214003 0.60164297 0.6202443 0.64483607
0003f0 55 0f 1b 3f 25 c7 22 3f 5a b7 23 3f c3 3a 1e 3f
       0.6057027 0.6358512 0.6395165 0.61808413

item_factors.weight f4 [2508, 8]
000000 4b e7 65 3f 16 6b 76 3f ff a3 64 3f 23 50 65 3f
       0.8980605 0.9625715 0.8931274 0.89575404
000010 6c 96 72 3f 6a 07 62 3f 13 1d 72 3f 81 31 67 3f
       0.94760776 0.8829256 0.94575614 0.9030991
000020 e7 1f fd 3e 1e ec 00 3f c2 78 0a 3f a6 ce 02 3f
       0.49438402 0.50360286 0.5409051 0.5109657
000030 12 22 fe 3e f3 ee fb 3e 7b 90 01 3f 19 2a fc 3e
       0.4963537 0.4920574 0.50611085 0.49250868
000040 15 6a 0f 3f 4e 58 0d 3f 29 f1 18 3f 2f 09 11 3f
       0.56021243 0.5521287 0.5974298 0.5665464
000050 3c ec 0e 3f 90 d9 12 3f 9d 38 0d 3f 8f a2 18 3f
       0.55829215 0.57363224 0.5516451 0.59623045
000060 40 67 44 3f f0 49 4d 3f 9d 30 48 3f 84 72 46 3f
       0.76720047 0.80190945 0.7819918 0.77518487
000070 78 40 49 3f d6 cc 4d 3f 14 61 3f 3f 08 71 4a 3f
       0.78613997 0.8039068 0.74757504 0.7907872
000080 49 95 32 3f f0 32 26 3f 3a 36 27 3f e6 9d 29 3f
       0.6975904 0.64921474 0.6531712 0.6625656
000090 67 a5 29 3f 4f 2e 2a 3f 6d bd 29 3f 8e ad 26 3f
       0.6626801 0.6647691 0.66304666 0.65108573
0000a0 5f 98 48 3f 66 0d 43 3f 29 3c 4a 3f 04 e4 43 3f
       0.783575 0.7619232 0.7899805 0.765198
0000b0 fe 16 43 3f cc 5a 42 3f 7a 90 48 3f 00 7c 4f 3f
       0.7620696 0.75919795 0.78345454 0.81048584
0000c0 c1 cb 86 3f 16 ca 7f 3f a2 b1 86 3f e0 a5 84 3f
       1.0530931 0.99917734 1.0522959 1.0363121
0000d0 c6 e3 83 3f 28 0c 85 3f 2f 0b 7f 3f 1f 2b 88 3f
       1.0303886 1.0394335 0.9962644 1.063816
0000e0 c9 06 a4 3c 29 c8 7c 3c 90 aa 8f b9 0b 5e 23 3b
       0.020022767 0.015428581 -0.00027402164 0.002492788
0000f0 f4 70 1a 3c c6 84 42 3d 0f cd f6 3b c4 03 42 3c
       0.009426344 0.047489904 0.007531769 0.011841718
000100 82 a2 4e 3f 79 90 3f 3f 40 8d 49 3f ad ef 49 3f
       0.8071672 0.7482982 0.78731155 0.7888134
000110 da 2b 3e 3f d1 ae 45 3f c8 1b 40 3f 6d e7 4b 3f
       0.7428566 0.77219874 0.7504239 0.7965
000120 8b d5 33 3f c6 fa 2a 3f 51 b8 37 3f e7 e0 34 3f
       0.70247716 0.667889 0.7176562 0.70655674
000130 4c 2e 2d 3f 8f 23 2e 3f 38 a4 2b 3f e5 59 36 3f
       0.6764877 0.6802301 0.6704745 0.7123092
000140 e6 df 19 3f 7f 40 12 3f a2 ef 19 3f 62 b7 15 3f
       0.60107267 0.57129663 0.60131276 0.58482945
000150 49 95 0f 3f 72 34 10 3f ac aa 18 3f 99 7f 1b 3f
       0.56087166 0.56330025 0.59635425 0.60741574
000160 d6 d8 32 3f 39 f4 39 3f 53 6c 3b 3f 9f 64 3b 3f
       0.69862115 0.7263828 0.73212165 0.7320041
000170 e2 2d 30 3f b5 b2 35 3f 42 71 34 3f 39 68 37 3f
       0.6882001 0.7097581 0.7048532 0.71643406
000180 60 fb be 3e 4c 10 c5 3e cb 10 b7 3e 3e 9f d2 3e
       0.3730116 0.38488996 0.35755 0.41137117
000190 6c c5 a9 3e 83 e0 c2 3e 71 78 b7 3e bc 5b ae 3e
       0.33158433 0.38061914 0.35834077 0.34054363
0001a0 f1 64 3f 3f e2 6e 4d 3f 77 03 46 3f ef e1 39 3f
       0.747634 0.8024732 0.77349037 0.7261037
0001b0 90 7e 3f 3f 87 a4 3f 3f eb 97 51 3f 29 e9 41 3f
       0.74802494 0.74860424 0.81872433 0.757464
0001c0 24 22 2a 3f 32 36 28 3f f2 ec 3e 3f 24 a5 2f 3f
       0.66458344 0.65707695 0.745803 0.6861136
0001d0 aa 33 27 3f a4 28 36 3f 1a fc 2a 3f 84 46 35 3f
       0.6531321 0.7115576 0.66790926 0.70810723
0001e0 52 54 bb 3e 43 04 b3 3e 5c 89 a8 3e 05 11 bd 3e
       0.3658777 0.3496419 0.32917297 0.36927047
0001f0 a3 ca ab 3e d6 75 a6 3e ad d7 b1 3e f9 a2 bb 3e
       0.33553037 0.32511777 0.3473486 0.36647776
000200 12 3b 46 3f 35 ff 3c 3f c1 8a 3a 3f e1 1c 37 3f
       0.77433884 0.73826915 0.7286797 0.7152844
000210 a0 ae 45 3f 1f 28 3f 3f c5 a4 3b 3f 95 55 36 3f
       0.7721958 0.74670595 0.73298293 0.7122434
000220 04 60 09 3f 90 5c 08 3f 21 e3 05 3f 74 e3 fa 3e
       0.53662133 0.5326624 0.52299696 0.49001658
000230 c5 45 03 3f 80 b4 fc 3e 5e 14 02 3f c2 34 f9 3e
       0.51278335 0.4935646 0.5081233 0.48673064
000240 3b 41 51 3f a4 37 4b 3f 2c 32 46 3f 0d f8 46 3f
       0.8174016 0.79381776 0.77420306 0.77722245
000250 d8 23 49 3f c1 62 51 3f dc 32 4e 3f 8e bf 49 3f
       0.7857032 0.8179131 0.80546355 0.78807914
000260 2e a8 1e 3f c2 53 14 3f a5 9a 1a 3f b8 43 1b 3f
       0.6197537 0.57940304 0.6039222 0.60650206
000270 d8 3e 1e 3f 3a a7 1f 3f 2d 4b 19 3f c2 ee 1a 3f
       0.6181464 0.6236454 0.59880334 0.60520566
000280 6f 18 46 3f 4d cd 4a 3f f8 c5 43 3f f9 34 3c 3f
       0.7738103 0.79219514 0.7647395 0.7351833
000290 76 f0 41 3f a2 d8 4a 3f 37 ea 46 3f 6f 44 48 3f
       0.7575754 0.79236805 0.77701133 0.7822942
0002a0 39 47 32 3f b4 26 37 3f 54 40 33 3f fd cf 36 3f
       0.6963993 0.7154343 0.7002003 0.71411115
0002b0 42 83 31 3f cd 52 3f 3f 7b 70 2d 3f ca 1c 3b 3f
       0.6934091 0.7473572 0.67749757 0.73090804
0002c0 cb 7d 61 3f 4a ea 66 3f bb 87 63 3f 38 01 72 3f
       0.8808257 0.90201247 0.88878983 0.9453311
0002d0 20 c1 6d 3f 89 3b 64 3f 04 c3 62 3f a9 c4 6c 3f
       0.9287281 0.89153343 0.8857882 0.9248758
0002e0 77 26 16 3f 50 23 11 3f a2 13 15 3f 31 1f 17 3f
       0.5865244 0.5669451 0.5823308 0.5903197
0002f0 c0 fe 18 3f d2 30 16 3f c9 0e 0e 3f 3a 71 0e 3f
       0.5976372 0.58668244 0.5549131 0.5564152
000300 04 b8 49 3f 18 47 48 3f e3 5d 49 3f 9f 97 37 3f
       0.7879641 0.7823348 0.78658885 0.7171573
000310 03 be 46 3f bc 8b 42 3f 39 57 3d 3f e4 78 42 3f
       0.77633685 0.7599447 0.73961216 0.75965714
000320 b2 4e e7 3e bd 1a e6 3e fd cd e6 3e ce a6 f4 3e
       0.45177227 0.44942275 0.45079032 0.47783512
000330 37 4e ee 3e 74 a9 f4 3e 22 a5 eb 3e 2d 1f fd 3e
       0.46544048 0.47785532 0.46024424 0.49437848
000340 7f 04 56 3f d6 bf 53 3f e5 00 4e 3f df 08 57 3f
       0.8360061 0.82714593 0.80470115 0.8399791
000350 7f 3c 56 3f bb 9c 51 3f 76 ac 4e 3f 12 e3 57 3f
       0.8368606 0.81879777 0.80731905 0.84330857
000360 93 3e a7 3e f0 5a 9d 3e 77 3f a5 3e 4b 5d aa 3e
       0.32664928 0.30733442 0.32274982 0.33274302
000370 6f 23 9b 3e 3f 39 95 3e 39 20 a6 3e 46 33 ab 3e
       0.3030047 0.29145238 0.3244646 0.33437556
000380 b4 91 57 3f 6c 3b 65 3f 2f e1 60 3f f6 9a 5d 3f
       0.842067 0.89543796 0.878436 0.86564577
000390 d2 76 5c 3f 6b cc 6a 3f f9 d1 60 3f 51 44 62 3f
       0.86118805 0.9171817 0.8782039 0.8838549
0003a0 45 4b 12 3f 41 fd 0c 3f bb 2f 08 3f 28 6a 0b 3f
       0.571461 0.55073935 0.5319783 0.54458857
0003b0 39 d3 13 3f 93 70 13 3f d7 b0 08 3f a1 4b 08 3f
       0.57744175 0.5759365 0.53394836 0.532404
0003c0 72 1d 2a 3f cc 1d 23 3f 30 7f 23 3f 0a fd 22 3f
       0.6645118 0.6371734 0.6386595 0.63667357
0003d0 58 7f 29 3f 69 12 2e 3f 57 04 27 3f 96 f8 20 3f
       0.66209936 0.6799684 0.65241 0.6287931
0003e0 1c 8a ca 3e 4b 41 b4 3e e2 19 ba 3e 4e 61 c0 3e
       0.39558494 0.35206065 0.36347872 0.37574238
0003f0 a5 d9 cc 3e 66 ac ce 3e f4 09 be 3e df 73 d2 3e
       0.400098 0.40365905 0.3711697 0.41104028
